(4455,)


steer : -0.041176


steer : 0.041176
(160, 320, 3)
_________________________________________________________________
Layer (type)                 Output Shape              Param #   
=================================================================
cropping2d_1 (Cropping2D)    (None, 90, 320, 3)        0         
_________________________________________________________________
lambda_1 (Lambda)            (None, 90, 320, 3)        0         
_________________________________________________________________
conv2d_1 (Conv2D)            (None, 43, 158, 24)       1824      
_________________________________________________________________
activation_1 (Activation)    (None, 43, 158, 24)       0         
_________________________________________________________________
conv2d_2 (Conv2D)            (None, 20, 77, 36)        21636     
_________________________________________________________________
activation_2 (Activation)    (None, 20, 77, 36)        0         
_________________________________________________________________
conv2d_3 (Conv2D)            (None, 8, 37, 48)         43248     
_________________________________________________________________
activation_3 (Activation)    (None, 8, 37, 48)         0         
_________________________________________________________________
conv2d_4 (Conv2D)            (None, 6, 35, 60)         25980     
_________________________________________________________________
activation_4 (Activation)    (None, 6, 35, 60)         0         
_________________________________________________________________
conv2d_5 (Conv2D)            (None, 4, 33, 72)         38952     
_________________________________________________________________
activation_5 (Activation)    (None, 4, 33, 72)         0         
_________________________________________________________________
conv2d_6 (Conv2D)            (None, 2, 31, 84)         54516     
_________________________________________________________________
activation_6 (Activation)    (None, 2, 31, 84)         0         
_________________________________________________________________
flatten_1 (Flatten)          (None, 5208)              0         
_________________________________________________________________
dense_1 (Dense)              (None, 128)               666752    
_________________________________________________________________
dense_2 (Dense)              (None, 50)                6450      
_________________________________________________________________
dense_3 (Dense)              (None, 10)                510       
_________________________________________________________________
dense_4 (Dense)              (None, 1)                 11        
=================================================================
Total params: 859,879
Trainable params: 859,879
Non-trainable params: 0
_________________________________________________________________
Train on 25393 samples, validate on 1337 samples
Epoch 1/5

   32/25393 [..............................] - ETA: 30:08 - loss: 0.0442
   96/25393 [..............................] - ETA: 10:14 - loss: 0.0629
…
